…
esNet-18 model pretrained on the ImageNet dataset to extract image features and denote the model instance as pretrained_net. The last few layers of this model include a global average pooling layer and a fully connected layer: they are not needed in the fully convolutional network. pretrained_net = torchvision.models.resnet18(pretrained=True) list(pretrained_net.children())[-3:]
Downloading: "https://download.pytorch.org/models/resnet18-f37072fd.pth" to / ↩!home/ci/.cache/torch/hub/checkpoints/resnet18-f37072fd.pth 100%|| 44.7M/44.7M [00:00<00:00, 56.3MB/s]
[Sequential( (0): BasicBlock( (conv1): Conv2d(256, 512, kernel_size=(3, 3), stride=(2, 2), padding=(1,␣ ↩!1), bias=False) (bn1): BatchNorm2d(512, eps=1e-05, momentum=0.1, affine=True, track_ ↩!running_stats=True) (relu): ReLU(inplace=True) (conv2): Conv2d(512, 512, kernel_size=(3, 3), stride=(1, 1), padding=(1,␣ ↩!1), bias=False) (bn2): BatchNorm2d(512, eps=1e-05, momentum=0.1, affine=True, track_
Background
Cat
F
Transposed conv F 1x1 Conv F
CNN
F
(continues on next page)
Fully Convolutional Networks
661

↩!running_stats=True) (downsample): Sequential( (0): Conv2d(256, 512, kernel_size=(1, 1), stride=(2, 2), bias=False) (1): BatchNorm2d(512, eps=1e-05, momentum=0.1, affine=True, track_ ↩!running_stats=True) ) ) (1): BasicBlock( (conv1): Conv2d(512, 512, kernel_size=(3, 3), stride=(1, 1), padding=(1,␣ ↩!1), bias=False) (bn1): BatchNorm2d(512, eps=1e-05, momentum=0.1, affine=True, track_ ↩!running_stats=True) (relu): ReLU(inplace=True) (conv2): Conv2d(512, 512, kernel_size=(3, 3), stride=(1, 1), padding=(1,␣ ↩!1), bias=False) (bn2): BatchNorm2d(512, eps=1e-05, momentum=0.1, affine=True, track_ ↩!running_stats=True) ) ), AdaptiveAvgPool2d(output_size=(1, 1)), Linear(in_features=512, out_features=1000, bias=True)]
Next, we create the fully convolutional network instance net. It copies all the pretrained layers in the ResNet-18 except for the final global average pooling layer and the fully con- nected layer that are closest to the output. nected layer that are closest to the output. net = nn.Sequential(*list(pretrained_net.children())[:-2])
…
